demos/models/synthetic_model.pt (torch, 128121 bytes, 6 tensors)

episodic_store.keys_buffer f4 [100, 128]
-0.13026288 -0.0115859285 -0.13726626 -0.082248725 0.024955314 -0.07818437 0.15664509 -0.06262245
0.017959327 -0.018782012 0.01971904 0.063657895 -0.051630262 0.03170752 0.061934292 -0.030518487
-0.025847852 0.04626122 0.15410018 0.08808363 0.07142191 -0.06399619 -0.088545695 -0.05095688
0.022774866 -0.062682 -0.031941928 -0.0752192 -0.0062215123 0.005670439 0.08445255 0.09473356
-0.035898674 -0.065500215 -0.09580221 0.040529203 0.11137374 0.059144385 0.15159966 -0.0034364294
-0.10384315 -0.038079116 0.04099853 0.018845178 -0.075962074 -0.08145978 0.12149845 -0.06184035
-0.037961565 -0.073811725 -0.062344372 0.015906533 0.051692415 -0.17753981 0.029361468 -0.030908376
0.00871638 0.1456478 0.08725712 -0.19337942 -0.19002219 0.047799643 0.0120853735 0.0943878
0.17979822 -0.2846273 -0.096729465 -0.0127934115 -0.02819222 0.013691526 0.10646524 0.17453492
-0.10866651 -0.022467418 -0.06486276 -0.008542278 -0.010301249 -0.08897314 0.05798233 -0.021209585
0.13488898 -0.094212405 -0.0073582237 0.029574506 0.046409953 0.05417002 -0.14798929 0.0349534
-0.03333688 0.12671536 -0.06529263 0.024979783 0.0011369755 -0.13301617 0.08879899 0.09457108
-0.04635625 -0.066740595 -0.0061438037 -0.03626107 -0.12016046 -0.06092452 0.17303908 -0.068288095
-0.06946013 0.051959194 0.072829254 -0.15295336 -0.025797673 -0.0111144995 -0.014522075 -0.050835423
-0.015021796 -0.02951651 0.031395864 0.026067046 -0.047828622 -0.05033843 -0.09052811 -0.08755546
0.14928094 -0.013028163 -0.27808854 0.06953875 0.13705337 0.014105528 -0.10722313 -0.0047598258
-0.1428506 -0.005648055 -0.14448038 -0.06383291 0.03549683 -0.07440116 0.1658823 -0.03907138
0.027935775 -0.047852926 0.017837467 0.044851646 -0.04428574 0.027242161 0.06368867 -0.0034967891
-0.022649737 0.055633105 0.13776879 0.06050525 0.061137564 -0.058889028 -0.083943576 -0.046431284
0.01973414 -0.059137143 -0.043876953 -0.091443256 -0.018066496 0.017250298 0.0744922 0.09073711
-0.06370172 -0.07994665 -0.07595234 0.045346882 0.13711904 0.061681464 0.17221062 -0.0023915067
-0.10233029 -0.03398322 0.033502273 0.0045130835 -0.08261007 -0.07108699 0.12726903 -0.03585096
-0.026271855 -0.07028283 -0.06472624 0.030200781 0.034868836 -0.17829157 0.0438684 -0.004568465
0.0099089965 0.13639258 0.107519455 -0.18113013 -0.1836777 0.043604404 0.01337971 0.105395906
0.16275252 -0.269744 -0.08806889 -0.005697083 -0.031080158 0.027378023 0.117479384 0.17046528
-0.11201301 -0.03814405 -0.0795152 -0.00052026205 -0.025186026 -0.0686018 0.05937679 -0.028734041
0.15425752 -0.1019181 -0.0043211905 0.021692535 0.06516244 0.055523567 -0.14953719 0.043526158
-0.041970704 0.12307443 -0.06738692 0.015959231 -0.027687589 -0.12029584 0.089520276 0.11092336
-0.048505668 -0.055199366 -0.010706967 -0.028843848 -0.11539266 -0.049540646 0.16457352 -0.07486118
-0.06850263 0.06866234 0.06501032 -0.15472966 -0.040061697 -0.009274957 -0.0020920865 -0.0501779
-0.012434308 -0.02401023 0.025684519 0.018967692 -0.041618038 -0.053506177 -0.121950485 -0.113085255
0.15605654 -0.031037813 -0.26236284 0.06861485 0.14779592 -0.003150952 -0.10246269 -0.0076090214
00000000: a263 05be e8d2 3dbc 878f 0cbe 0572 a8bd
00000010: 166f cc3c 211f a0bd 9267 203e 3340 80bd
00000020: 701f 933c bcdc 99bc d389 a13c 125f 823d
00000030: 417a 53bd bfdf 013d d0ae 7d3d e801 fabc
00000040: e0be d3bc 687c 3d3d 70cc 1d3e 3165 b43d
00000050: a645 923d 6f10 83bd 7257 b5bd 29b8 50bd
00000060: 5b92 ba3c 6c5f 80bd 8ad5 02bd 860c 9abd
00000070: d4dd cbbb 17cf b93b 75f5 ac3d ab03 c23d
00000080: 7d0a 13bd fa24 86bd f333 c4bd f301 263d
00000090: ea17 e43d 6241 723d f13c 1b3e b835 61bb
000000a0: b8ab d4bd d9f8 1bbd 13ee 273d 3461 9a3c
000000b0: 0192 9bbd 63d4 a6bd 2ed4 f83d 4f4c 7dbd
000000c0: 967d 1bbd 9a2a 97bd d05c 7fbd 6b4e 823c
000000d0: 6dbb 533d ffcc 35be 7687 f03c 9033 fdbc
000000e0: 26cf 0e3c b224 153e dcb3 b23d 4105 46be
000000f0: 2d95 42be 8fc9 433d bb01 463c 644e c13d
00000100: 061d 383e abba 91be 191a c6bd 759b 51bc
00000110: 5ff3 e6bc 6c52 603c 730a da3d 48b9 323e
00000120: 8c8c debd 970d b8bc c4d6 84bd e9f4 0bbc
00000130: 92c6 28bc 8d37 b6bd e17e 6d3d b9bf adbc
00000140: 5620 0a3e 6ff2 c0bd 411d f1bb 3c46 f23c
00000150: 5d18 3e3d 62e1 5d3d 818a 17be 4c2b 0f3d
00000160: 418c 08bd acc1 013e 24b8 85bd 67a2 cc3c
00000170: 9106 953a 6435 08be 3fdc b53d 7bae c13d
00000180: 0de0 3dbd 4baf 88bd f651 c9bb 7d86 14bd
00000190: b016 f6bd fd8b 79bd 2831 313e a1da 8bbd
000001a0: 1d41 8ebd 2ad3 543d 8127 953d ce9f 1cbe
000001b0: a455 d3bc 9719 36bc ffed 6dbc ce38 50bd
000001c0: fb1d 76bc 9ccc f1bc f398 003d 8f8a d53c
000001d0: f2e7 43bd ab2f 4ebd cd66 b9bd 4750 b3bd
000001e0: 1add 183e 1474 55bc 9f61 8ebe 556a 8e3d
000001f0: b857 0c3e df1a 673c cd97 dbbd 50f8 9bbb
00000200: 6d47 12be 5213 b9bb aaf2 13be d4ba 82bd
00000210: 2065 113d a35f 98bd 0ddd 293e 5009 20bd
00000220: 91d9 e43c 6e01 44bd e11f 923c 5cb6 373d
00000230: f764 35bd f42a df3c 356f 823d 632a 65bb
00000240: f18b b9bc 8adf 633d 4313 0d3e 5ad4 773d
00000250: 626b 7a3d 9f35 71bd 9cea abbd bb2e 3ebd
00000260: 7ea9 a13c ca39 72bd 52b8 33bd 9a46 bbbd
00000270: 3000 94bc 7f50 8d3c 5e8f 983d 61d4 b93d
00000280: 0c76 82bd 12bb a3bd e78c 9bbd a7bd 393d
00000290: ef68 0c3e b4a5 7c3d fb57 303e d3ba 1cbb
000002a0: 8b92 d1bd fd31 0bbd ae39 093d 7de2 933b
000002b0: 782f a9bd 0e96 91bd d052 023e 75d8 12bd
000002c0: 1338 d7bc 72f0 8fbd 318f 84bd a167 f73c
000002d0: a0d2 0e3d 1192 36be 5aaf 333d 10b3 95bb
000002e0: 5859 223c 7faa 0b3e 2933 dc3d 2d7a 39be
000002f0: 0216 3cbe 889a 323d 9236 5b3c cfd9 d73d
00000300: 99a8 263e e31b 8abe 765d b4bd 99ae babb
00000310: d19b febc e047 e03c 0899 f03d 738e 2e3e
00000320: 1467 e5bd ef3c 1cbd ddd8 a2bd 3262 08ba
00000330: ed52 cebc 1a7f 8cbd 1435 733d a763 ebbc
00000340: aff5 1d3e 70ba d0bd c698 8dbb 8bb4 b13c
00000350: e373 853d ae6c 633d 4720 19be 7c48 323d
00000360: 79e9 2bbd 720e fc3d 2702 8abd efbc 823c
00000370: 15d1 e2bc aa5d f6bd 6856 b73d c92b e33d
00000380: e1ad 46bd bb18 62bd 466c 2fbc ef49 ecbc
00000390: fd52 ecbd 22eb 4abd f685 283e d150 99bd
000003a0: 1b4b 8cbd d79e 8c3d 2124 853d 7471 1ebe
000003b0: bc17 24bd fdf5 17bc 631b 09bb 5787 4dbd
000003c0: 45b9 4bbc 1ab1 c4bc 5768 d23c 2262 9b3c
000003d0: ad77 2abd 4b29 5bbd 2dc1 f9bd 3e99 e7bd
000003e0: 49cd 1f3e 0343 febc 6c54 86be f185 8c3d
000003f0: d057 173e 3480 4ebb f5d7 d1bd 1955 f9bb

episodic_store.slots_buffer f4 [100, 128]
-1.5392431 -0.13690439 -1.6219981 -0.9718869 0.2948829 -0.9238607 1.8509867 -0.73997426
0.21221524 -0.22193646 0.23300879 0.7522095 -0.6100857 0.37466994 0.73184264 -0.36061978
-0.30542952 0.5466428 1.820915 1.0408347 0.8439525 -0.75620687 -1.0462946 -0.60212874
0.26911777 -0.74067795 -0.37743977 -0.8888229 -0.07351611 0.06700438 0.99792814 1.1194131
-0.4241944 -0.7739792 -1.1320407 0.47891074 1.3160408 0.6988759 1.7913678 -0.04060635
-1.227056 -0.44995946 0.48445654 0.22268286 -0.897601 -0.9625644 1.4356787 -0.7307326
-0.44857043 -0.87219155 -0.7366883 0.18795855 0.6108202 -2.097888 0.34694794 -0.36522686
0.10299656 1.721038 1.0310682 -2.2850556 -2.2453852 0.5648215 0.14280605 1.1153275
2.1245742 -3.3632803 -1.1429976 -0.15117253 -0.33313158 0.16178505 1.2580398 2.0623808
-1.284051 -0.2654848 -0.7664467 -0.10093929 -0.121724054 -1.0513455 0.68514454 -0.2506217
1.5939071 -1.1132549 -0.086947985 0.34946528 0.5484003 0.6400966 -1.748706 0.41302463
-0.39392313 1.4973241 -0.7715262 0.29517204 0.013434999 -1.5717771 1.0492877 1.1174932
-0.5477657 -0.788636 -0.07259787 -0.42847666 -1.4198685 -0.71991074 2.0447054 -0.80692196
-0.8207712 0.61397254 0.86058223 -1.8073637 -0.30483657 -0.13133378 -0.17159918 -0.6006936
-0.1775041 -0.34877998 0.37098724 0.3080196 -0.5651639 -0.59482086 -1.0697197 -1.0345936
1.7639687 -0.15394647 -3.2860155 0.8217002 1.6194824 0.16667707 -1.2669953 -0.05624418
-1.6575694 -0.06553731 -1.6764808 -0.7406863 0.41188812 -0.8633152 1.9248184 -0.4533655
0.32415327 -0.5552623 0.20697737 0.5204369 -0.5138704 0.31610492 0.73901266 -0.040575057
-0.26281664 0.64553976 1.5986027 0.70207375 0.70941085 -0.6833199 -0.9740408 -0.53876626
0.22898546 -0.68619895 -0.509127 -1.0610635 -0.20963491 0.20016414 0.86437166 1.0528698
-0.7391641 -0.92766243 -0.8813144 0.52618337 1.5910634 0.715722 1.998249 -0.027749892
-1.1873914 -0.39432493 0.38874424 0.052367646 -0.9585675 -0.82485914 1.4767685 -0.4159973
-0.30484596 -0.8155281 -0.75105214 0.35043532 0.4046012 -2.0688095 0.5090278 -0.05301027
0.11497922 1.5826339 1.247604 -2.1017468 -2.1313076 0.5059645 0.15525171 1.2229633
1.8885019 -3.1299796 -1.021909 -0.06610621 -0.36063918 0.3176814 1.3631742 1.977997
-1.2997451 -0.44260517 -0.92265606 -0.00603687 -0.29224652 -0.79602224 0.6889797 -0.333416
1.78993 -1.1826086 -0.050141014 0.25170973 0.7561136 0.64426875 -1.7351575 0.50505656
-0.48700786 1.4280964 -0.7819254 0.18518324 -0.32127345 -1.395855 1.0387502 1.2871013
-0.5628364 -0.64050686 -0.12423849 -0.33469012 -1.3389609 -0.5748458 1.9096318 -0.86865306
-0.7948715 0.7967247 0.7543484 -1.7954086 -0.46485665 -0.10762213 -0.024275564 -0.58224016
-0.14428173 -0.27860314 0.2980308 0.22009195 -0.48291567 -0.6208599 -1.4150547 -1.3121868
1.810805 -0.36014783 -3.044332 0.79617363 1.7149526 -0.03656213 -1.1889277 -0.08829142
00000000: eb05 c5bf aa30 0cbe a29d cfbf 94cd 78bf
00000010: e4fa 963e 2382 6cbf 22ed ec3f f46e 3dbf
00000020: f44e 593e 5043 63be db99 6e3e cd90 403f
00000030: 942e 1cbf bdd4 bf3e 0a5a 3b3f 28a3 b8be
00000040: 4261 9cbe c8f0 0b3f be13 e93f 123a 853f
00000050: 450d 583f c696 41bf fbec 85bf 1c25 1abf
00000060: cec9 893e 129d 3dbf c93f c1be e689 63bf
00000070: 9d8f 96bd 9839 893d 3878 7f3f ee48 8f3f
00000080: 0230 d9be 8023 46bf b6e6 90bf ca33 f53e
00000090: 0674 a83f 88e9 323f 8a4b e53f d852 26bd
000000a0: 2c10 9dbf 1661 e6be b00a f83e fa06 643e
000000b0: 2ec9 65bf 9f6a 76bf 52c4 b73f 4b11 3bbf
000000c0: 06ab e5be f247 5fbf 9b97 3cbf 3578 403e
000000d0: b65e 1c3f cc43 06c0 29a3 b13e 04ff babe
000000e0: dcef d23d f94a dc3f 0bfa 833f 5a3e 12c0
000000f0: 64b4 0fc0 2498 103f c03b 123e 0dc3 8e3f
00000100: 06f9 0740 fc3f 57c0 bf4d 92bf f9cc 1abe
00000110: 3990 aabe fbaa 253e 7307 a13f 0cfe 0340
00000120: c85b a4bf a0ed 87be da35 44bf 42b9 cebd
00000130: 764a f9bd 7d92 86bf a265 2f3f 7d51 80be
00000140: 2605 cc3f 237f 8ebf c911 b2bd 1ded b23e
00000150: f663 0c3f 5fdd 233f 99d5 dfbf f777 d33e
00000160: 4bb0 c9be 51a8 bf3f be82 45bf ca20 973e
00000170: 781e 5c3c fe2f c9bf 0f4f 863f 040a 8f3f
00000180: 5f3a 0cbf 0de4 49bf 31ae 94bd 4b61 dbbe
00000190: 40be b5bf 124c 38bf 74dc 0240 7092 4ebf
000001a0: 101e 52bf 4e2d 1d3f 1e4f 5c3f b257 e7bf
000001b0: 8a13 9cbe 5d7c 06be b2b7 2fbe 0ec7 19bf
000001c0: a3c3 35be 4a93 b2be 0af2 bd3e bfb4 9d3e
000001d0: 95ae 10bf 2e46 18bf 93ec 88bf 906d 84bf
000001e0: bac9 e13f 25a4 1dbe 144e 52c0 f25a 523f
000001f0: 334b cf3f 65ad 2a3e e72c a2bf 4c60 66bd
00000200: 3c2b d4bf 6d38 86bd ec96 d6bf 9e9d 3dbf
00000210: 00e3 d23e 3a02 5dbf 7360 f63f 861f e8be
00000220: 6bf7 a53e ac25 0ebf e0f1 533e 5a3b 053f
00000230: 038d 03bf 81d8 a13e ef2f 3d3f 0832 26bd
00000240: e78f 86be 1842 253f 039f cc3f 1bbb 333f
00000250: f39b 353f 0eee 2ebf bd5a 79bf 96ec 09bf
00000260: 2a7b 6a3e bcaa 2fbf 2656 02bf eed0 87bf
00000270: 89aa 56be d4f7 4c3e 7647 5d3f 70c4 863f
00000280: dc39 3dbf 497b 6dbf d29d 61bf f4b3 063f
00000290: f7a7 cb3f 8f39 373f a0c6 ff3f be53 e3bc
000002a0: 71fc 97bf f5e4 c9be 7c09 c73e 757f 563d
000002b0: ae64 75bf f829 53bf c006 bd3f 99fd d4be
000002c0: c514 9cbe 73c6 50bf f444 40bf 426c b33e
000002d0: e327 cf3e 6067 04c0 a54f 023f 4c21 59bd
000002e0: 3a7a eb3d bf93 ca3f 7db1 9f3f 0583 06c0
000002f0: 5867 08c0 e486 013f 4efa 1e3e 108a 9c3f
00000300: 6eba f13f 9651 48c0 eacd 82bf b162 87bd
00000310: b3a5 b8be 23a7 a23e 7e7c ae3f 012f fd3f
00000320: 0c5e a6bf 259d e2be 3033 6cbf f0d0 c5bb
00000330: 56a1 95be 1dc8 4bbf f960 303f 80b5 aabe
00000340: 6d1c e53f b85f 97bf aa60 4dbd 19e0 803e
00000350: a990 413f ccee 243f a419 debf 634b 013f
00000360: 1859 f9be ddcb b63f 432c 48bf ada0 3d3e
00000370: f47d a4be 60ab b2bf c4f5 843f bcbf a43f
00000380: 0c16 10bf 42f8 23bf c070 febd 815c abbe
00000390: 1263 abbf 1829 13bf d16e f43f 0c60 5ebf
000003a0: b37c 4bbf 26f6 4b3f fa1c 413f f3cf e5bf
000003b0: b101 eebe fe68 dcbd 8cdd c6bc b10d 15bf
000003c0: 97be 13be 12a5 8ebe 7e97 983e c95f 613e
000003d0: b940 f7be adf0 1ebf 8320 b5bf bdf5 a7bf
000003e0: 75c8 e73f 4c65 b8be 56d6 42c0 09d2 4b3f
000003f0: 9183 db3f 2cc2 15bd c82e 98bf 22d2 b4bd

k_store.keys f4 [20, 128]
-0.13318753 -0.004432133 -0.14666173 -0.06837321 0.031823296 -0.077192135 0.16256931 -0.053290036
0.020274155 -0.03042263 0.022760464 0.049736947 -0.048214808 0.028230682 0.06300851 -0.016265852
-0.029704187 0.04888722 0.14905299 0.07440218 0.0691924 -0.060467362 -0.08653851 -0.050403442
0.021697838 -0.06114213 -0.040109735 -0.08835289 -0.0082982285 0.012968159 0.07708642 0.0893279
-0.051663812 -0.076256074 -0.08579226 0.039800745 0.123541266 0.06001535 0.1617997 -0.00508308
-0.1106164 -0.036089044 0.039813027 0.016910365 -0.083891034 -0.07388142 0.122849815 -0.04665784
-0.03289246 -0.0693106 -0.066329725 0.024740266 0.04136091 -0.17484076 0.034144048 -0.017093202
0.016413618 0.1394667 0.09279614 -0.18630502 -0.18180129 0.044724025 0.015771797 0.10223543
0.16900438 -0.27686316 -0.088967726 -0.007432458 -0.024283426 0.018805327 0.113882855 0.17518806
-0.10802569 -0.034216654 -0.06918098 0.0021180368 -0.01825295 -0.07908151 0.05780263 -0.024400052
0.14514111 -0.09823159 -0.002653696 0.030747669 0.05981793 0.056142002 -0.14811555 0.039616827
-0.04004278 0.1251797 -0.066097565 0.023642115 -0.012405994 -0.12850647 0.093206815 0.10132496
-0.053462006 -0.067798 -0.008795599 -0.032826815 -0.118752986 -0.053881533 0.16875021 -0.07850567
-0.06882616 0.054212783 0.06530392 -0.16176353 -0.0335849 -0.013589802 -0.004178922 -0.050689373
-0.007959175 -0.030015942 0.029056488 0.029968228 -0.045398068 -0.052502945 -0.103706636 -0.09688718
0.15145174 -0.021278078 -0.26866314 0.07092734 0.14844386 0.011349163 -0.106671154 -0.0017934262
-0.060858175 0.07915555 0.0495466 0.00820761 -0.14514871 0.12248696 -0.065791465 0.06711748
0.12306211 0.022942789 -0.02228911 0.026870374 -0.14712729 0.009441492 0.027169501 -0.007528258
0.053997178 -0.07971755 -0.09648861 0.06600535 -0.0269512 0.036415968 0.11126055 -0.063701704
0.076490685 -0.07612308 -0.15127681 -0.03586601 0.0074006384 0.06671988 -0.041444972 0.031249242
-0.07642035 -0.0064987834 -0.14228833 0.10601542 -0.17020637 -0.057264507 -0.12069073 -0.013235865
-0.09784009 -0.10811629 0.0936308 0.01536837 -0.23299189 0.032959625 -0.019969553 -0.032546785
0.029103361 -0.0773525 0.06530185 0.015243768 0.013710379 0.07029711 -0.07572267 -0.092221126
0.08055166 0.17468415 0.053032145 0.07625761 -0.048814133 -0.0109290555 -0.06259054 -0.087653756
-0.022825224 -0.009132603 -0.15179846 0.07141806 -0.050934818 0.013226231 -0.010444711 -0.059162896
0.104311116 -0.23624426 -0.03684856 -0.023000482 -0.055194873 0.07701829 -0.08240547 -0.0097744325
0.07977933 -0.15090093 -0.034819797 0.10092562 0.004434773 0.035907466 -0.10674325 -0.039524484
-0.031426966 -0.068477646 0.25441557 0.017517727 0.121534154 -0.15729141 0.012429675 0.121504456
-0.0251291 0.043878622 -0.11673202 -0.025039338 0.04702008 -0.06376306 -0.063969776 -0.005448222
0.264327 -0.038404807 -0.10581696 0.06965565 0.12576367 0.1826 0.0938894 -0.048318665
-0.0029835724 0.08098688 -0.08099697 -0.07878199 -0.0031685473 0.011188919 0.020751463 -0.024328515
-0.05406151 0.05766589 -0.08198827 -0.045887712 0.06498424 0.0017849115 -0.15930793 0.13139574
00000000: 5062 08be 6d3b 91bb 7e2e 16be 4107 8cbd
00000010: 2559 023d e916 9ebd 9278 263e a746 5abd
00000020: fc15 a63c e138 f9bc 2774 ba3c f8b8 4b3d
00000030: e47c 45bd 0844 e73c 9b0a 813d f73f 85bc
00000040: 3256 f3bc f73d 483d 59a1 183e 2c60 983d
00000050: bfb4 8d3d a0ac 77bd 1a3b b1bd d773 4ebd
00000060: aabf b13c 2c70 7abd 1b4a 24bd 5cf2 b4bd
00000070: 4bf5 07bc 6778 543c 7cdf 9d3d 8cf1 b63d
00000080: 6f9d 53bd 252c 9cbd dab3 afbd 1b06 233d
00000090: 3403 fd3d a8d2 753d d2ae 253e f78f a6bb
000000a0: da8a e2bd 1bd2 13bd fc12 233d 9b87 8a3c
000000b0: 10cf abbd 244f 97bd af98 fb3d 4b1c 3fbd
000000c0: 3eba 06bd b7f2 8dbd e1d7 87bd 19ac ca3c
000000d0: 0f6a 293d 7509 33be a1da 0b3d 0b07 8cbc
000000e0: da75 863c 5cd0 0e3e e70b be3d bec6 3ebe
000000f0: 1e2a 3abe 8a30 373d db33 813c cf60 d13d
00000100: 7c0f 2d3e 02c1 8dbe b634 b6bd fa8b f3bb
00000110: 09ee c6bc a10d 9a3c 6a3b e93d 8064 333e
00000120: 933c ddbd c326 0cbd c2ae 8dbd c3ce 0a3b
00000130: 3687 95bc 7df5 a1bd 73c2 6c3d 9ee2 c7bc
00000140: df9f 143e a52d c9bd a2e9 2dbb 89e2 fb3c
00000150: a503 753d 28f5 653d 9aab 17be 4145 223d
00000160: e603 24bd 1b2f 003e 295e 87bd 1cad c13c
00000170: 8342 4bbc 3397 03be 37e3 be3d 7683 cf3d
00000180: fafa 5abd aed9 8abd 6b1b 10bc 6975 06bd
00000190: c434 f3bd e2b2 5cbd dbcc 2c3e 95c7 a0bd
000001a0: bbf4 8cbd 390e 5e3d 10be 853d 57a5 25be
000001b0: 5290 09bd c3a7 5ebc 57ef 88bb a99f 4fbd
000001c0: 3367 02bc fee3 f5bc df07 ee3c ee7f f53c
000001d0: 53f3 39bd 540d 57bd 2564 d4bd c96c c6bd
000001e0: 2a16 1b3e 5d4f aebc 378e 89be 5a42 913d
000001f0: ab01 183e d7f1 393c 6876 dabd 6611 ebba
00000200: 6c46 79bd 4e1c a23d 60f1 4a3d 3679 063c
00000210: dda1 14be 71da fa3d adbd 86bd e474 893d
00000220: fd07 fc3d 84f2 bb3c a797 b6bc 421f dc3c
00000230: 89a8 16be 7db0 1a3c 9392 de3c 9baf f6bb
00000240: 252c 5d3d f442 a3bd d29b c5bd d02d 873d
00000250: c3c8 dcbc e928 153d 92dc e33d 0a76 82bd
00000260: 26a7 9c3d 6be6 9bbd 4fe8 1abe 3de8 12bd
00000270: 0e81 f23b 6fa4 883d 34c2 29bd 69fe ff3c
00000280: 4682 9cbd bff3 d4bb 08b4 11be 9d1e d93d
00000290: 944a 2ebe 308e 6abd b42c f7bd 3edb 58bc
000002a0: 6360 c8bd 136c ddbd 81c1 bf3d 9ecb 7b3c
000002b0: 6d95 6ebe ac00 073d 3097 a3bc c74f 05bd
000002c0: 2c6a ee3c fd6a 9ebd fabc 853d ffc0 793c
000002d0: 7fa1 603c eef7 8f3d 7d14 9bbd 6ede bcbd
000002e0: 45f8 a43d 67e0 323e 3c38 593d f32c 9c3d
000002f0: 54f1 47bd c80f 33bc 782f 80bd d083 b3bd
00000300: f7fb babc eaa0 15bc 0e71 1bbe a243 923d
00000310: 07a1 50bd d5b2 583c 4b20 2bbc cb54 72bd
00000320: 11a1 d53d 04ea 71be 84ee 16bd 826b bcbc
00000330: 0514 62bd c4bb 9d3d 33c4 a8bd f124 20bc
00000340: 5863 a33d c685 1abe 349f 0ebd 17b2 ce3d
00000350: 9351 913b b513 133d 349c dabd 6de4 21bd
00000360: 90b9 00bd 023e 8cbd c242 823e 5681 8f3c
00000370: e6e6 f83d 0011 21be d6a5 4b3c 54d7 f83d
00000380: 8bdb cdbc 12ba 333d 3311 efbd 4c1f cdbc
00000390: 2198 403d 3596 82bd 9602 83bd 0087 b2bb
000003a0: de55 873e 5c4e 1dbd 90b6 d8bd 9fa7 8e3d
000003b0: 31c8 003e 7ffb 3a3e 1649 c03d cbe9 45bd
000003c0: 0a88 43bb 73dc a53d bde1 a5bd 7458 a1bd
000003d0: 67a7 4fbb ba51 373c f9fe a93c 984c c7bc
000003e0: 9a6f 5dbd 1133 6c3d 77e9 a7bd c1f4 3bbd
000003f0: 7516 853d b1f3 e93a 9e21 23be 9b8c 063e

k_store.values f4 [20, 128]
-1.5568051 -0.051806405 -1.7143027 -0.7992022 0.37197682 -0.90228504 1.9002436 -0.6228977
0.23698096 -0.35560468 0.26604298 0.58136624 -0.56357425 0.32998338 0.7364952 -0.19012862
-0.34720692 0.57143396 1.7422537 0.8696738 0.8087776 -0.7067922 -1.0115331 -0.5891568
0.25362214 -0.7146794 -0.4688355 -1.0327411 -0.09699651 0.1515825 0.9010494 1.0441378
-0.60388905 -0.8913436 -1.0028104 0.4652238 1.4440517 0.7015087 1.8912477 -0.05941521
-1.2929753 -0.42183837 0.46536732 0.19766223 -0.9805873 -0.86358666 1.4359695 -0.54537517
-0.38447407 -0.8101592 -0.77531624 0.28918454 0.48346028 -2.0436823 0.39910367 -0.19979937
0.19185585 1.6302013 1.0846775 -2.177686 -2.1250427 0.5227711 0.18435371 1.1950116
1.975462 -3.236204 -1.0399278 -0.08687667 -0.28384462 0.2198121 1.3311563 2.047742
-1.2626929 -0.39995232 -0.8086441 0.024757354 -0.21335547 -0.92436963 0.6756446 -0.28520784
1.6965284 -1.1482115 -0.03101858 0.359404 0.69920105 0.6562338 -1.7312961 0.463074
-0.46805286 1.4632031 -0.77260256 0.27634844 -0.14501144 -1.5020891 1.0894778 1.1843693
-0.6249078 -0.79247874 -0.10281018 -0.38370678 -1.3880824 -0.6298116 1.9724909 -0.9176388
-0.8044967 0.6336835 0.76332587 -1.8908249 -0.3925679 -0.15884876 -0.048846673 -0.592499
-0.09303337 -0.35085097 0.3396361 0.35029325 -0.5306499 -0.6136975 -1.2122083 -1.1324968
1.7702922 -0.24871564 -3.1403553 0.8290569 1.7351338 0.13265833 -1.24686 -0.020963037
-0.30363968 0.39493075 0.24720283 0.040950228 -0.7241904 0.61112416 -0.32825336 0.33486924
0.61399376 0.114468455 -0.11120705 0.13406435 -0.73406214 0.047106434 0.13555679 -0.037560735
0.2694081 -0.39773473 -0.4814106 0.3293205 -0.13446762 0.18169019 0.55511224 -0.3178269
0.38163495 -0.37980086 -0.7547654 -0.17894629 0.036924005 0.3328855 -0.20678139 0.15591183
-0.38128406 -0.03242438 -0.7099191 0.5289427 -0.84921056 -0.2857098 -0.60216224 -0.0660377
-0.48815355 -0.5394246 0.46715212 0.076677404 -1.1624664 0.16444544 -0.09963409 -0.16238567
0.1452054 -0.38593483 0.3258105 0.07605573 0.06840519 0.35073334 -0.37780312 -0.46011883
0.4018964 0.87155163 0.26459327 0.38047206 -0.24354835 -0.054528333 -0.31228298 -0.43733087
-0.113881886 -0.045565296 -0.757368 0.3563261 -0.25412908 0.06598963 -0.052111793 -0.29518142
0.52043945 -1.1786934 -0.18384852 -0.1147563 -0.27538377 0.38426733 -0.4111456 -0.048767574
0.39804298 -0.75289 -0.17372641 0.50354815 0.022126412 0.17915311 -0.53257406 -0.19719951
-0.15679856 -0.3416555 1.2693555 0.08740119 0.60637033 -0.784774 0.062015377 0.60622215
-0.12537661 0.2189236 -0.58241105 -0.12492876 0.23459728 -0.31813303 -0.3191644 -0.027182814
1.3188066 -0.1916131 -0.52795255 0.34753293 0.62747264 0.91104615 0.46844235 -0.2410763
-0.014885938 0.4040678 -0.40411815 -0.39306697 -0.015808832 0.05582487 0.10353527 -0.12138225
-0.26972908 0.2877124 -0.40906405 -0.22894755 0.32422584 0.008905458 -0.794835 0.6555728
00000000: 6445 c7bf f432 54bd 456e dbbf 8498 4cbf
00000010: bf73 be3e 27fc 66bf 2f3b f33f 3976 1fbf
00000020: 23ab 723e d111 b6be c936 883e 6bd4 143f
00000030: 6746 10bf 95f3 a83e f38a 3c3f 14b1 42be
00000040: 1bc5 b1be 7f49 123f 2b02 df3f f1a2 5e3f
00000050: 0c0c 4f3f 55f0 34bf eb79 81bf fbd2 16bf
00000060: c3da 813e 3bf5 36bf 350b f0be dc30 84bf
00000070: 1ba6 c6bd 7138 1b3e 2cab 663f 4fa6 853f
00000080: 7998 1abf 182f 64bf 175c 80bf d031 ee3e
00000090: b0d6 b83f 1396 333f 6814 f23f 5d5d 73bd
000000a0: 3780 a5bf 33fb d7be a044 ee3e f867 4a3e
000000b0: c507 7bbf 0414 5dbf d9cd b73f b59d 0bbf
000000c0: c9d9 c4be 9866 4fbf 207b 46bf ff0f 943e
000000d0: 1b88 f73e b1cb 02c0 5157 cc3e 3598 4cbe
000000e0: dc75 443e 70aa d03f b6d6 8a3f 355f 0bc0
000000f0: b300 08c0 54d4 053f 38c7 3c3e 24f6 983f
00000100: f0db fc3f f71d 4fc0 5b1c 85bf 65ec b1bd
00000110: 1554 91be 6c16 613e 5463 aa3f 340e 0340
00000120: ec9f a1bf 8dc6 ccbe 4d03 4fbf efcf ca3c
00000130: db79 5abe 7da3 6cbf 0bf7 2c3f c306 92be
00000140: d827 d93f 98f8 92bf ad1a febc cd03 b83e
00000150: d7fe 323f f0fe 273f 1c9b ddbf 0918 ed3e
00000160: a0a4 efbe 3d4a bb3f 48c9 45bf 8b7d 8d3e
00000170: e17d 14be 7544 c0bf 0274 8b3f 6a99 973f
00000180: f5f9 1fbf e3df 4abf 258e d2bd 3775 c4be
00000190: afac b1bf 553b 21bf 957a fc3f 60ea 6abf
000001a0: 7ff3 4dbf 1539 223f 5369 433f 8d06 f2bf
000001b0: a9fe c8be 40a9 22be 7313 48bd 04ae 17bf
000001c0: 4888 bebd bda2 b3be c8e4 ad3e a359 b33e
000001d0: acd8 07bf 481b 1dbf a429 9bbf a8f5 90bf
000001e0: ef98 e23f 50af 7ebe 95fb 48c0 133d 543f
000001f0: dd18 de3f 96d7 073e 1c99 9fbf adba abbc
00000200: a976 9bbe 5d34 ca3e bd22 7d3e 6dbb 273d
00000210: 8b64 39bf a272 1c3f d310 a8be fb73 ab3e
00000220: b22e 1d3f 706e ea3d 86c0 e3bd 2a48 093e
00000230: 7feb 3bbf adf2 403d 66cf 0a3e 49d9 19bd
00000240: dcef 893e e3a3 cbbe 737b f6be b29c a83e
00000250: e1b1 09be fe0c 3a3e d61b 0e3f 35ba a2be
00000260: a865 c33e 4275 c2be 4e38 41bf b23d 37be
00000270: a03d 173d f86f aa3e 80be 53be 5aa7 1f3e
00000280: aa37 c3be 6dcf 04bd 42bd 35bf ca68 073f
00000290: dd65 59bf 8e48 92be 4e27 1abf c63e 87bd
000002a0: 43ef f9be bb17 0abf 902e ef3e 0b09 9d3d
000002b0: b3cb 94bf 6364 283e f50c ccbd 6e48 26be
000002c0: b9b0 143e 4099 c5be a2d0 a63e 1bc3 9b3d
000002d0: 0518 8c3d 5293 b33e 696f c1be b294 ebbe
000002e0: 5dc5 cd3e 021e 5f3f c578 873e 3ccd c23e
000002f0: bd64 79be 1a59 5fbd 8ee3 9fbe d5e9 dfbe
00000300: e83a e9bd ada2 3abd dfe2 41bf 6070 b63e
00000310: 351d 82be 9225 873d 2d73 55bd 0522 97be
00000320: 853b 053f 6ddf 96bf c942 3cbe 5a05 ebbd
00000330: 1aff 8cbe b0be c43e ad81 d2be 82c0 47bd
00000340: 4acc cb3e 66bd 40bf 56e5 31be 88e8 003f
00000350: 7342 b53c ea73 373e c656 08bf abee 49be
00000360: cd8f 20be 78ed aebe 3e7a a23f 65ff b23d
00000370: 163b 1b3f f3e6 48bf d603 7e3d 6031 1b3f
00000380: ba62 00be 822d 603e e418 15bf a6da ffbd
00000390: 453a 703e 55e2 a2be 8469 a3be 7eae debc
000003a0: a8ce a83f 3936 44be e627 07bf d6ef b13e
000003b0: 0ca2 203f 523a 693f add7 ef3e b5dc 76be
000003c0: 26e4 73bc fae1 ce3e 93e8 cebe 1340 c9be
000003d0: 8681 81bc 9ea8 643d 4d0a d43d 4297 f8bd
000003e0: ee19 8abe 0a4f 933e d870 d1be 3a71 6abe
000003f0: ee00 a63e 33e8 113c 4e7a 4bbf 9ed3 273f

encoder.weight f4 [128, 1]
-0.7813567 0.807021 -0.13731682 0.43681264 0.12146306 -0.794382 -0.6688198 -0.53363013
0.04258418 0.3427148 -0.9958267 -0.18823004 -0.68451643 -0.68064976 0.32107568 0.938151
0.79767835 -0.5514327 -0.37998533 -0.76204956 0.6622808 0.091866255 -0.81827164 -0.23778021
-0.0758214 -0.35423708 0.41811407 -0.8154838 -0.042239428 0.037168622 0.8181375 -0.14424837
0.5718268 -0.6191907 0.60561955 -0.9966936 -0.30962014 -0.14199352 -0.8668536 0.5067626
-0.11032438 -0.8096441 0.53610253 0.8375752 0.04959297 -0.55533624 0.3345232 -0.0915432
0.14364123 -0.1438843 0.7115146 -0.15098262 0.50625825 -0.9696417 0.24919057 0.034670234
-0.81553173 -0.8285558 0.9460294 0.787462 0.75445616 -0.28858554 -0.27578354 0.3507105
0.77642715 0.31132078 0.76255155 0.32669592 0.65415967 0.6730108 -0.727522 0.5223826
-0.8935598 -0.4855833 -0.35850966 0.7565237 -0.9230429 -0.45436573 -0.97849643 0.55087066
-0.5015695 -0.66388464 -0.7364893 0.39606988 0.02531135 -0.90344334 0.6640818 0.18704247
0.32926977 0.75895333 0.8530457 -0.8617356 -0.008681178 -0.9458276 -0.35994852 0.49302697
0.77883375 -0.8246695 0.21574485 -0.44984794 -0.019465208 -0.9155837 -0.40399265 0.13420427
-0.02998221 0.864445 -0.46086633 -0.47914517 -0.562979 -0.77145064 -0.2790277 -0.59154046
-0.44696796 0.61276543 -0.5031868 -0.71539307 -0.76955914 0.57077515 0.41163087 -0.18068051
0.8319962 0.2797978 -0.5757271 0.39398122 -0.52102447 0.97395 -0.46681392 -0.27569902
00000000: fe06 48bf ee98 4e3f c89c 0cbe e8a5 df3e
00000010: a0c1 f83d 9e5c 4bbf c637 2bbf fc9b 08bf
00000020: c06c 2e3d 5078 af3e 80ee 7ebf 60bf 40be
00000030: 783c 2fbf 103f 2ebf 0864 a43e aa2a 703f
00000040: a634 4c3f b22a 0dbf 708d c2be ae15 43bf
00000050: 3c8b 293f 6024 bc3d 407a 51bf a87c 73be
00000060: 4048 9bbd 905e b5be 0c13 d63e 8cc3 50bf
00000070: 4003 2dbd 203e 183d 7671 513f d8b5 13be
00000080: 3e63 123f 4883 1ebf e209 1b3f 5027 7fbf
00000090: 8886 9ebe c066 11be 1eea 5dbf 32bb 013f
000000a0: c0f1 e1bd d644 4fbf 043e 093f 546b 563f
000000b0: 0022 4b3d 842a 0ebf a046 ab3e 007b bbbd
000000c0: b016 133e 6856 13be d225 363f 309b 1abe
000000d0: 249a 013f 703a 78bf d02b 7f3e 6002 0e3d
000000e0: b0c6 50bf 3c1c 54bf fc2e 723f 1c97 493f
000000f0: 0a24 413f 7cc1 93be 8033 8dbe 5490 b33e
00000100: eec3 463f 7065 9f3e 9436 433f b044 a73e
00000110: 0277 273f 704a 2c3f e23e 3abf deba 053f
00000120: 56c0 64bf 609e f8be 948e b7be 8aab 413f
00000130: 8a4c 6cbf a0a2 e8be be7e 7abf dc05 0d3f
00000140: dc66 00bf 58f4 29bf 908a 3cbf acc9 ca3e
00000150: c059 cf3c 1048 67bf 4401 2a3f 1088 3f3e
00000160: 0c96 a83e c44a 423f 3461 5a3f b49a 5cbf
00000170: 803b 0ebc c221 72bf 2c4b b8be 086e fc3e
00000180: a661 473f 8a1d 53bf 38ec 5c3e 7852 e6be
00000190: 8075 9fbc b263 6abf 20d8 cebe d86c 093e
000001a0: 409d f5bc 444c 5d3f acf6 ebbe 8452 f5be
000001b0: 641f 10bf ca7d 45bf b8dc 8ebe 326f 17bf
000001c0: fcd8 e4be 32de 1c3f dad0 00bf 0024 37bf
000001d0: d401 45bf 521e 123f 48c1 d23e 5004 39be
000001e0: b4fd 543f a841 8f3e da62 13bf e8b7 c93e
000001f0: dc61 05bf ca54 793f 3c02 efbe 6c28 8dbe

encoder.bias f4 [128]
-0.8051163 0.91144836 -0.44299936 0.96006787 -0.46849096 0.4238621 -0.48052382 -0.006806135
-0.75989544 -0.2189349 -0.62296224 -0.18766761 0.5398146 -0.58070576 -0.8322604 0.97519946
-0.89194024 0.16318846 -0.41054296 -0.9561063 0.42798197 0.49043155 -0.017282963 0.7075834
0.83838105 0.6795069 -0.67673993 -0.4020431 -0.16943312 0.69642437 0.2315886 -0.8583441
-0.58661187 0.19425535 0.7402433 0.16977143 0.89213514 -0.25204003 0.5536454 -0.46132505
0.27639496 0.88587797 -0.90137506 -0.016793013 0.42899024 -0.45598948 0.9303962 0.88410616
0.20145297 -0.7114037 -0.89541125 -0.30349803 0.9710164 0.92147183 0.5481583 0.40238214
0.92908907 -0.067956686 -0.50489485 0.86029756 -0.7192241 0.37546444 -0.22511244 0.30596602
0.62999046 -0.121465325 0.72264254 -0.8817315 0.7846191 -0.14630473 -0.27450216 -0.8982949
0.9252467 -0.1534847 0.6819942 -0.44912875 -0.693452 -0.2888795 0.76435316 0.21821284
-0.9216087 -0.33127785 -0.63975835 0.15584981 0.9912269 -0.36336195 -0.9510796 0.39629126
-0.4047972 0.9154875 0.35520756 0.37944376 -0.19559777 -0.94924366 -0.41102803 -0.7703458
0.22519398 -0.87878406 -0.043941617 -0.7875477 0.3641106 0.26294506 -0.5603998 0.9214717
-0.6993433 -0.5430627 0.6279731 0.8844209 -0.15151381 0.7659193 -0.44346917 -0.530933
-0.4263103 0.91442525 0.6968765 -0.61155903 0.60463846 0.5404234 -0.032456756 0.707543
-0.23241091 -0.48534262 0.6176251 -0.093322754 0.5616679 0.16248858 -0.91071784 -0.8624158
00000000: 1a1c 4ebf ae54 693f d0d0 e2be 02c7 753f
00000010: 0cde efbe 7404 d93e 3807 f6be 0006 dfbb
00000020: 8288 42bf 7830 60be 747a 1fbf f02b 40be
00000030: 4a31 0a3f 22a9 14bf 040f 55bf aca6 793f
00000040: 3256 64bf e01a 273e b032 d2be 62c3 74bf
00000050: 7420 db3e d819 fb3e 0095 8dbc 3024 353f
00000060: 24a0 563f 2af4 2d3f d43e 2dbf 98d8 cdbe
00000070: e07f 2dbe de48 323f 9025 6d3e 70bc 5bbf
00000080: 322c 16bf e0ea 463e 9680 3d3f 90d8 2d3e
00000090: f862 643f 640b 81be b4bb 0d3f cc32 ecbe
000000a0: a483 8d3e e6c8 623f 84c0 66bf 8091 89bc
000000b0: 9ca4 db3e 7477 e9be 722e 6e3f c854 623f
000000c0: b049 4e3e 8e1e 36bf ac39 65bf 1864 9bbe
000000d0: 8894 783f 94e5 6b3f 1a54 0c3f 0805 ce3e
000000e0: c8d8 6d3f e02c 8bbd ca40 01bf 763c 5c3f
000000f0: 121f 38bf e03c c03e e083 66be 94a7 9c3e
00000100: 0e47 213f d0c2 f8bd 1aff 383f 28b9 61bf
00000110: ccdc 483f e8d0 15be 8c8b 8cbe a8f6 65bf
00000120: f8dc 6c3f 182b 1dbe 2c97 2e3f 34f4 e5be
00000130: 1286 31bf 04e8 93be a6ac 433f 3073 5f3e
00000140: 8cee 6bbf 409d a9be 34c7 23bf 1897 1f3e
00000150: 0cc1 7d3f 940a babe f479 73bf b0e6 ca3e
00000160: 9441 cfbe 645d 6a3f c4dd b53e 7446 c23e
00000170: c84a 48be a201 73bf 4472 d2be 6235 45bf
00000180: 4099 663e fef7 60bf 20fc 33bd ba9c 49bf
00000190: b46c ba3e bca0 863e 5c76 0fbf 92e5 6b3f
000001a0: 2a08 33bf 2806 0bbf d8c2 203f 6869 623f
000001b0: 7026 1bbe 4a13 443f 640e e3be 3aeb 07bf
000001c0: 5845 dabe c617 6a3f 8066 323f 228f 1cbf
000001d0: 96c9 1a3f 3059 0a3f 60f1 04bd 8a21 353f
000001e0: 20fd 6dbe d47e f8be ae1c 1e3f 0020 bfbd
000001f0: 78c9 0f3f 6863 263e ce24 69bf 48c7 5cbf
